EDSR(
  (sub_mean): MeanShift(3, 3, kernel_size=(1, 1), stride=(1, 1))
  (add_mean): MeanShift(3, 3, kernel_size=(1, 1), stride=(1, 1))
  (head): Sequential(
    (0): Conv2d(3, 256, kernel_size=(3, 3), stride=(1, 1), padding=(1, 1))
  )
  (body): Sequential(
    (0): ResBlock(
      (body): Sequential(
        (0): SeparableConv(
          (conv1): Conv2d(256, 256, kernel_size=(3, 3), stride=(1, 1), padding=(1, 1), groups=256)
          (conv2): Conv2d(256, 256, kernel_size=(1, 1), stride=(1, 1))
        )
        (1): ReLU(inplace)
        (2): SeparableConv(
          (conv1): Conv2d(256, 256, kernel_size=(3, 3), stride=(1, 1), padding=(1, 1), groups=256)
          (conv2): Conv2d(256, 256, kernel_size=(1, 1), stride=(1, 1))
        )
      )
    )
    (1): ResBlock(
      (body): Sequential(
        (0): SeparableConv(
          (conv1): Conv2d(256, 256, kernel_size=(3, 3), stride=(1, 1), padding=(1, 1), groups=256)
          (conv2): Conv2d(256, 256, kernel_size=(1, 1), stride=(1, 1))
        )
        (1): ReLU(inplace)
        (2): SeparableConv(
          (conv1): Conv2d(256, 256, kernel_size=(3, 3), stride=(1, 1), padding=(1, 1), groups=256)
          (conv2): Conv2d(256, 256, kernel_size=(1, 1), stride=(1, 1))
        )
      )
    )
    (2): ResBlock(
      (body): Sequential(
        (0): SeparableConv(
          (conv1): Conv2d(256, 256, kernel_size=(3, 3), stride=(1, 1), padding=(1, 1), groups=256)
          (conv2): Conv2d(256, 256, kernel_size=(1, 1), stride=(1, 1))
        )
        (1): ReLU(inplace)
        (2): SeparableConv(
          (conv1): Conv2d(256, 256, kernel_size=(3, 3), stride=(1, 1), padding=(1, 1), groups=256)
          (conv2): Conv2d(256, 256, kernel_size=(1, 1), stride=(1, 1))
        )
      )
    )
    (3): ResBlock(
      (body): Sequential(
        (0): SeparableConv(
          (conv1): Conv2d(256, 256, kernel_size=(3, 3), stride=(1, 1), padding=(1, 1), groups=256)
          (conv2): Conv2d(256, 256, kernel_size=(1, 1), stride=(1, 1))
        )
        (1): ReLU(inplace)
        (2): SeparableConv(
          (conv1): Conv2d(256, 256, kernel_size=(3, 3), stride=(1, 1), padding=(1, 1), groups=256)
          (conv2): Conv2d(256, 256, kernel_size=(1, 1), stride=(1, 1))
        )
      )
    )
    (4): ResBlock(
      (body): Sequential(
        (0): SeparableConv(
          (conv1): Conv2d(256, 256, kernel_size=(3, 3), stride=(1, 1), padding=(1, 1), groups=256)
          (conv2): Conv2d(256, 256, kernel_size=(1, 1), stride=(1, 1))
        )
        (1): ReLU(inplace)
        (2): SeparableConv(
          (conv1): Conv2d(256, 256, kernel_size=(3, 3), stride=(1, 1), padding=(1, 1), groups=256)
          (conv2): Conv2d(256, 256, kernel_size=(1, 1), stride=(1, 1))
        )
      )
    )
    (5): ResBlock(
      (body): Sequential(
        (0): SeparableConv(
          (conv1): Conv2d(256, 256, kernel_size=(3, 3), stride=(1, 1), padding=(1, 1), groups=256)
          (conv2): Conv2d(256, 256, kernel_size=(1, 1), stride=(1, 1))
        )
        (1): ReLU(inplace)
        (2): SeparableConv(
          (conv1): Conv2d(256, 256, kernel_size=(3, 3), stride=(1, 1), padding=(1, 1), groups=256)
          (conv2): Conv2d(256, 256, kernel_size=(1, 1), stride=(1, 1))
        )
      )
    )
    (6): ResBlock(
      (body): Sequential(
        (0): SeparableConv(
          (conv1): Conv2d(256, 256, kernel_size=(3, 3), stride=(1, 1), padding=(1, 1), groups=256)
          (conv2): Conv2d(256, 256, kernel_size=(1, 1), stride=(1, 1))
        )
        (1): ReLU(inplace)
        (2): SeparableConv(
          (conv1): Conv2d(256, 256, kernel_size=(3, 3), stride=(1, 1), padding=(1, 1), groups=256)
          (conv2): Conv2d(256, 256, kernel_size=(1, 1), stride=(1, 1))
        )
      )
    )
    (7): ResBlock(
      (body): Sequential(
        (0): SeparableConv(
          (conv1): Conv2d(256, 256, kernel_size=(3, 3), stride=(1, 1), padding=(1, 1), groups=256)
          (conv2): Conv2d(256, 256, kernel_size=(1, 1), stride=(1, 1))
        )
        (1): ReLU(inplace)
        (2): SeparableConv(
          (conv1): Conv2d(256, 256, kernel_size=(3, 3), stride=(1, 1), padding=(1, 1), groups=256)
          (conv2): Conv2d(256, 256, kernel_size=(1, 1), stride=(1, 1))
        )
      )
    )
    (8): ResBlock(
      (body): Sequential(
        (0): SeparableConv(
          (conv1): Conv2d(256, 256, kernel_size=(3, 3), stride=(1, 1), padding=(1, 1), groups=256)
          (conv2): Conv2d(256, 256, kernel_size=(1, 1), stride=(1, 1))
        )
        (1): ReLU(inplace)
        (2): SeparableConv(
          (conv1): Conv2d(256, 256, kernel_size=(3, 3), stride=(1, 1), padding=(1, 1), groups=256)
          (conv2): Conv2d(256, 256, kernel_size=(1, 1), stride=(1, 1))
        )
      )
    )
    (9): ResBlock(
      (body): Sequential(
        (0): SeparableConv(
          (conv1): Conv2d(256, 256, kernel_size=(3, 3), stride=(1, 1), padding=(1, 1), groups=256)
          (conv2): Conv2d(256, 256, kernel_size=(1, 1), stride=(1, 1))
        )
        (1): ReLU(inplace)
        (2): SeparableConv(
          (conv1): Conv2d(256, 256, kernel_size=(3, 3), stride=(1, 1), padding=(1, 1), groups=256)
          (conv2): Conv2d(256, 256, kernel_size=(1, 1), stride=(1, 1))
        )
      )
    )
    (10): ResBlock(
      (body): Sequential(
        (0): SeparableConv(
          (conv1): Conv2d(256, 256, kernel_size=(3, 3), stride=(1, 1), padding=(1, 1), groups=256)
          (conv2): Conv2d(256, 256, kernel_size=(1, 1), stride=(1, 1))
        )
        (1): ReLU(inplace)
        (2): SeparableConv(
          (conv1): Conv2d(256, 256, kernel_size=(3, 3), stride=(1, 1), padding=(1, 1), groups=256)
          (conv2): Conv2d(256, 256, kernel_size=(1, 1), stride=(1, 1))
        )
      )
    )
    (11): ResBlock(
      (body): Sequential(
        (0): SeparableConv(
          (conv1): Conv2d(256, 256, kernel_size=(3, 3), stride=(1, 1), padding=(1, 1), groups=256)
          (conv2): Conv2d(256, 256, kernel_size=(1, 1), stride=(1, 1))
        )
        (1): ReLU(inplace)
        (2): SeparableConv(
          (conv1): Conv2d(256, 256, kernel_size=(3, 3), stride=(1, 1), padding=(1, 1), groups=256)
          (conv2): Conv2d(256, 256, kernel_size=(1, 1), stride=(1, 1))
        )
      )
    )
    (12): ResBlock(
      (body): Sequential(
        (0): SeparableConv(
          (conv1): Conv2d(256, 256, kernel_size=(3, 3), stride=(1, 1), padding=(1, 1), groups=256)
          (conv2): Conv2d(256, 256, kernel_size=(1, 1), stride=(1, 1))
        )
        (1): ReLU(inplace)
        (2): SeparableConv(
          (conv1): Conv2d(256, 256, kernel_size=(3, 3), stride=(1, 1), padding=(1, 1), groups=256)
          (conv2): Conv2d(256, 256, kernel_size=(1, 1), stride=(1, 1))
        )
      )
    )
    (13): ResBlock(
      (body): Sequential(
        (0): SeparableConv(
          (conv1): Conv2d(256, 256, kernel_size=(3, 3), stride=(1, 1), padding=(1, 1), groups=256)
          (conv2): Conv2d(256, 256, kernel_size=(1, 1), stride=(1, 1))
        )
        (1): ReLU(inplace)
        (2): SeparableConv(
          (conv1): Conv2d(256, 256, kernel_size=(3, 3), stride=(1, 1), padding=(1, 1), groups=256)
          (conv2): Conv2d(256, 256, kernel_size=(1, 1), stride=(1, 1))
        )
      )
    )
    (14): ResBlock(
      (body): Sequential(
        (0): SeparableConv(
          (conv1): Conv2d(256, 256, kernel_size=(3, 3), stride=(1, 1), padding=(1, 1), groups=256)
          (conv2): Conv2d(256, 256, kernel_size=(1, 1), stride=(1, 1))
        )
        (1): ReLU(inplace)
        (2): SeparableConv(
          (conv1): Conv2d(256, 256, kernel_size=(3, 3), stride=(1, 1), padding=(1, 1), groups=256)
          (conv2): Conv2d(256, 256, kernel_size=(1, 1), stride=(1, 1))
        )
      )
    )
    (15): ResBlock(
      (body): Sequential(
        (0): SeparableConv(
          (conv1): Conv2d(256, 256, kernel_size=(3, 3), stride=(1, 1), padding=(1, 1), groups=256)
          (conv2): Conv2d(256, 256, kernel_size=(1, 1), stride=(1, 1))
        )
        (1): ReLU(inplace)
        (2): SeparableConv(
          (conv1): Conv2d(256, 256, kernel_size=(3, 3), stride=(1, 1), padding=(1, 1), groups=256)
          (conv2): Conv2d(256, 256, kernel_size=(1, 1), stride=(1, 1))
        )
      )
    )
    (16): ResBlock(
      (body): Sequential(
        (0): SeparableConv(
          (conv1): Conv2d(256, 256, kernel_size=(3, 3), stride=(1, 1), padding=(1, 1), groups=256)
          (conv2): Conv2d(256, 256, kernel_size=(1, 1), stride=(1, 1))
        )
        (1): ReLU(inplace)
        (2): SeparableConv(
          (conv1): Conv2d(256, 256, kernel_size=(3, 3), stride=(1, 1), padding=(1, 1), groups=256)
          (conv2): Conv2d(256, 256, kernel_size=(1, 1), stride=(1, 1))
        )
      )
    )
    (17): ResBlock(
      (body): Sequential(
        (0): SeparableConv(
          (conv1): Conv2d(256, 256, kernel_size=(3, 3), stride=(1, 1), padding=(1, 1), groups=256)
          (conv2): Conv2d(256, 256, kernel_size=(1, 1), stride=(1, 1))
        )
        (1): ReLU(inplace)
        (2): SeparableConv(
          (conv1): Conv2d(256, 256, kernel_size=(3, 3), stride=(1, 1), padding=(1, 1), groups=256)
          (conv2): Conv2d(256, 256, kernel_size=(1, 1), stride=(1, 1))
        )
      )
    )
    (18): ResBlock(
      (body): Sequential(
        (0): SeparableConv(
          (conv1): Conv2d(256, 256, kernel_size=(3, 3), stride=(1, 1), padding=(1, 1), groups=256)
          (conv2): Conv2d(256, 256, kernel_size=(1, 1), stride=(1, 1))
        )
        (1): ReLU(inplace)
        (2): SeparableConv(
          (conv1): Conv2d(256, 256, kernel_size=(3, 3), stride=(1, 1), padding=(1, 1), groups=256)
          (conv2): Conv2d(256, 256, kernel_size=(1, 1), stride=(1, 1))
        )
      )
    )
    (19): ResBlock(
      (body): Sequential(
        (0): SeparableConv(
          (conv1): Conv2d(256, 256, kernel_size=(3, 3), stride=(1, 1), padding=(1, 1), groups=256)
          (conv2): Conv2d(256, 256, kernel_size=(1, 1), stride=(1, 1))
        )
        (1): ReLU(inplace)
        (2): SeparableConv(
          (conv1): Conv2d(256, 256, kernel_size=(3, 3), stride=(1, 1), padding=(1, 1), groups=256)
          (conv2): Conv2d(256, 256, kernel_size=(1, 1), stride=(1, 1))
        )
      )
    )
    (20): ResBlock(
      (body): Sequential(
        (0): SeparableConv(
          (conv1): Conv2d(256, 256, kernel_size=(3, 3), stride=(1, 1), padding=(1, 1), groups=256)
          (conv2): Conv2d(256, 256, kernel_size=(1, 1), stride=(1, 1))
        )
        (1): ReLU(inplace)
        (2): SeparableConv(
          (conv1): Conv2d(256, 256, kernel_size=(3, 3), stride=(1, 1), padding=(1, 1), groups=256)
          (conv2): Conv2d(256, 256, kernel_size=(1, 1), stride=(1, 1))
        )
      )
    )
    (21): ResBlock(
      (body): Sequential(
        (0): SeparableConv(
          (conv1): Conv2d(256, 256, kernel_size=(3, 3), stride=(1, 1), padding=(1, 1), groups=256)
          (conv2): Conv2d(256, 256, kernel_size=(1, 1), stride=(1, 1))
        )
        (1): ReLU(inplace)
        (2): SeparableConv(
          (conv1): Conv2d(256, 256, kernel_size=(3, 3), stride=(1, 1), padding=(1, 1), groups=256)
          (conv2): Conv2d(256, 256, kernel_size=(1, 1), stride=(1, 1))
        )
      )
    )
    (22): ResBlock(
      (body): Sequential(
        (0): SeparableConv(
          (conv1): Conv2d(256, 256, kernel_size=(3, 3), stride=(1, 1), padding=(1, 1), groups=256)
          (conv2): Conv2d(256, 256, kernel_size=(1, 1), stride=(1, 1))
        )
        (1): ReLU(inplace)
        (2): SeparableConv(
          (conv1): Conv2d(256, 256, kernel_size=(3, 3), stride=(1, 1), padding=(1, 1), groups=256)
          (conv2): Conv2d(256, 256, kernel_size=(1, 1), stride=(1, 1))
        )
      )
    )
    (23): ResBlock(
      (body): Sequential(
        (0): SeparableConv(
          (conv1): Conv2d(256, 256, kernel_size=(3, 3), stride=(1, 1), padding=(1, 1), groups=256)
          (conv2): Conv2d(256, 256, kernel_size=(1, 1), stride=(1, 1))
        )
        (1): ReLU(inplace)
        (2): SeparableConv(
          (conv1): Conv2d(256, 256, kernel_size=(3, 3), stride=(1, 1), padding=(1, 1), groups=256)
          (conv2): Conv2d(256, 256, kernel_size=(1, 1), stride=(1, 1))
        )
      )
    )
    (24): ResBlock(
      (body): Sequential(
        (0): SeparableConv(
          (conv1): Conv2d(256, 256, kernel_size=(3, 3), stride=(1, 1), padding=(1, 1), groups=256)
          (conv2): Conv2d(256, 256, kernel_size=(1, 1), stride=(1, 1))
        )
        (1): ReLU(inplace)
        (2): SeparableConv(
          (conv1): Conv2d(256, 256, kernel_size=(3, 3), stride=(1, 1), padding=(1, 1), groups=256)
          (conv2): Conv2d(256, 256, kernel_size=(1, 1), stride=(1, 1))
        )
      )
    )
    (25): ResBlock(
      (body): Sequential(
        (0): SeparableConv(
          (conv1): Conv2d(256, 256, kernel_size=(3, 3), stride=(1, 1), padding=(1, 1), groups=256)
          (conv2): Conv2d(256, 256, kernel_size=(1, 1), stride=(1, 1))
        )
        (1): ReLU(inplace)
        (2): SeparableConv(
          (conv1): Conv2d(256, 256, kernel_size=(3, 3), stride=(1, 1), padding=(1, 1), groups=256)
          (conv2): Conv2d(256, 256, kernel_size=(1, 1), stride=(1, 1))
        )
      )
    )
    (26): ResBlock(
      (body): Sequential(
        (0): SeparableConv(
          (conv1): Conv2d(256, 256, kernel_size=(3, 3), stride=(1, 1), padding=(1, 1), groups=256)
          (conv2): Conv2d(256, 256, kernel_size=(1, 1), stride=(1, 1))
        )
        (1): ReLU(inplace)
        (2): SeparableConv(
          (conv1): Conv2d(256, 256, kernel_size=(3, 3), stride=(1, 1), padding=(1, 1), groups=256)
          (conv2): Conv2d(256, 256, kernel_size=(1, 1), stride=(1, 1))
        )
      )
    )
    (27): ResBlock(
      (body): Sequential(
        (0): SeparableConv(
          (conv1): Conv2d(256, 256, kernel_size=(3, 3), stride=(1, 1), padding=(1, 1), groups=256)
          (conv2): Conv2d(256, 256, kernel_size=(1, 1), stride=(1, 1))
        )
        (1): ReLU(inplace)
        (2): SeparableConv(
          (conv1): Conv2d(256, 256, kernel_size=(3, 3), stride=(1, 1), padding=(1, 1), groups=256)
          (conv2): Conv2d(256, 256, kernel_size=(1, 1), stride=(1, 1))
        )
      )
    )
    (28): ResBlock(
      (body): Sequential(
        (0): SeparableConv(
          (conv1): Conv2d(256, 256, kernel_size=(3, 3), stride=(1, 1), padding=(1, 1), groups=256)
          (conv2): Conv2d(256, 256, kernel_size=(1, 1), stride=(1, 1))
        )
        (1): ReLU(inplace)
        (2): SeparableConv(
          (conv1): Conv2d(256, 256, kernel_size=(3, 3), stride=(1, 1), padding=(1, 1), groups=256)
          (conv2): Conv2d(256, 256, kernel_size=(1, 1), stride=(1, 1))
        )
      )
    )
    (29): ResBlock(
      (body): Sequential(
        (0): SeparableConv(
          (conv1): Conv2d(256, 256, kernel_size=(3, 3), stride=(1, 1), padding=(1, 1), groups=256)
          (conv2): Conv2d(256, 256, kernel_size=(1, 1), stride=(1, 1))
        )
        (1): ReLU(inplace)
        (2): SeparableConv(
          (conv1): Conv2d(256, 256, kernel_size=(3, 3), stride=(1, 1), padding=(1, 1), groups=256)
          (conv2): Conv2d(256, 256, kernel_size=(1, 1), stride=(1, 1))
        )
      )
    )
    (30): ResBlock(
      (body): Sequential(
        (0): SeparableConv(
          (conv1): Conv2d(256, 256, kernel_size=(3, 3), stride=(1, 1), padding=(1, 1), groups=256)
          (conv2): Conv2d(256, 256, kernel_size=(1, 1), stride=(1, 1))
        )
        (1): ReLU(inplace)
        (2): SeparableConv(
          (conv1): Conv2d(256, 256, kernel_size=(3, 3), stride=(1, 1), padding=(1, 1), groups=256)
          (conv2): Conv2d(256, 256, kernel_size=(1, 1), stride=(1, 1))
        )
      )
    )
    (31): ResBlock(
      (body): Sequential(
        (0): SeparableConv(
          (conv1): Conv2d(256, 256, kernel_size=(3, 3), stride=(1, 1), padding=(1, 1), groups=256)
          (conv2): Conv2d(256, 256, kernel_size=(1, 1), stride=(1, 1))
        )
        (1): ReLU(inplace)
        (2): SeparableConv(
          (conv1): Conv2d(256, 256, kernel_size=(3, 3), stride=(1, 1), padding=(1, 1), groups=256)
          (conv2): Conv2d(256, 256, kernel_size=(1, 1), stride=(1, 1))
        )
      )
    )
    (32): SeparableConv(
      (conv1): Conv2d(256, 256, kernel_size=(3, 3), stride=(1, 1), padding=(1, 1), groups=256, bias=False)
      (conv2): Conv2d(256, 256, kernel_size=(1, 1), stride=(1, 1), bias=False)
    )
  )
  (tail): Sequential(
    (0): Upsampler(
      (0): Conv2d(256, 1024, kernel_size=(3, 3), stride=(1, 1), padding=(1, 1))
      (1): PixelShuffle(upscale_factor=2)
    )
    (1): Conv2d(256, 3, kernel_size=(3, 3), stride=(1, 1), padding=(1, 1))
  )
)
[Epoch 1]	Learning rate: 1.00e-4
[6400/66400]	[L1: 11.4755]	43.9+0.7s
[12800/66400]	[L1: 8.7375]	44.8+0.0s
[19200/66400]	[L1: 7.7154]	44.6+0.0s
[25600/66400]	[L1: 7.1503]	44.7+0.1s
[32000/66400]	[L1: 6.7431]	45.2+0.0s
[38400/66400]	[L1: 6.4467]	44.1+0.1s
[44800/66400]	[L1: 6.2311]	44.3+0.1s
[51200/66400]	[L1: 6.0789]	44.2+0.0s
[57600/66400]	[L1: 5.9416]	44.9+0.1s
…
